models/stn_BEST_model.ckpt (torch, 224335 bytes, 8 tensors)

localization.0.weight f4 [32, 3, 3, 3]
0	0x00018fa4	1.43364e-40
1	0x800398c8	-3.30314e-40
2	0x00048601	4.15414e-40
3	0x00038fe4	3.27125e-40
4	0x000372c1	3.16672e-40
5	0x0002fbb4	2.73965e-40
6	0x8004d2fc	-4.43029e-40
7	0x8004e3d2	-4.49069e-40
8	0x000439dc	3.88098e-40
9	0x0002cd2c	2.57273e-40
10	0x0001758c	1.34003e-40
11	0x00047738	4.1011e-40
12	0x0002d35b	2.59491e-40
13	0x00010758	9.447e-41
14	0x00046ead	4.07045e-40
15	0x0001ddb3	1.71366e-40
16	0x00000527	1.848e-42
17	0x0003cea6	3.49638e-40
18	0x0003a2f1	3.33959e-40
19	0x80044dba	-3.95225e-40
20	0x80002033	-1.1551e-41
21	0x80029c93	-2.39839e-40
22	0x80014b31	-1.18809e-40
23	0x00045d30	4.00771e-40
24	0x00049d6f	4.23819e-40
25	0x0004682b	4.0471e-40
26	0x80016046	-1.26372e-40
27	0x00032e01	2.9201e-40
28	0x8004a0bf	-4.25007e-40
29	0x0003cb97	3.48541e-40
30	0x800232c9	-2.01889e-40
31	0x00028b44	2.3363e-40
32	0x0002e69b	2.66397e-40
33	0x80025f54	-2.17868e-40
34	0x00032285	2.8789e-40
35	0x8004d5ff	-4.4411e-40
36	0x00014d54	1.19576e-40
37	0x0003b2e1	3.39676e-40
38	0x00028969	2.32964e-40
39	0x80029742	-2.37932e-40
40	0x000453d7	3.97418e-40
41	0x8000f880	-8.9145e-41
42	0x80030311	-2.76607e-40
43	0x8003bd4b	-3.43412e-40
44	0x8003da11	-3.53734e-40
45	0x0002b05f	2.46941e-40
46	0x00029cab	2.39873e-40
47	0x00039cd9	3.31773e-40
48	0x8001c02d	-1.60775e-40
49	0x8003bb71	-3.42748e-40
50	0x8003eed8	-3.61187e-40
51	0x80022eea	-2.005e-40
52	0x8003406a	-2.98614e-40
53	0x800098cd	-5.4815e-41
54	0x0001e195	1.72759e-40
55	0x8003cbdb	-3.48636e-40
56	0x8002ac31	-2.45442e-40
57	0x00048c8f	4.17765e-40
58	0x80028d9c	-2.34471e-40
59	0x8002e7c1	-2.66809e-40
60	0x800482f2	-4.14316e-40
61	0x00037bde	3.19942e-40
62	0x00008be2	5.018e-41
63	0x8001e314	-1.73296e-40
64	0x8000788c	-4.3244e-41
65	0x00043ff8	3.9029e-40
66	0x8004ba13	-4.34093e-40
67	0x0004d249	4.42778e-40
68	0x00022536	1.9702e-40
69	0x80026dcc	-2.23059e-40
70	0x00049017	4.19032e-40
71	0x8000ee6f	-8.5534e-41
72	0x8004658a	-4.03767e-40
73	0x0000111e	6.14e-42
74	0x0004bdc0	4.35411e-40
75	0x80004cbe	-2.753e-41
76	0x00046668	4.04078e-40
77	0x80030ecf	-2.80819e-40
78	0x8001565a	-1.22813e-40
79	0x8001fdad	-1.82837e-40
80	0x00038cb6	3.25984e-40
81	0x0000af7c	6.2952e-41
82	0x80038fdf	-3.27118e-40
83	0x0000f10f	8.6476e-41
84	0x00042f59	3.84327e-40
85	0x0001b57c	1.5694e-40
86	0x8003bf6c	-3.44176e-40
87	0x00025ef9	2.17741e-40
88	0x80040160	-3.67835e-40
89	0x00021ea0	1.94657e-40
90	0x80003b3b	-2.1248e-41
91	0x800488a1	-4.16355e-40
92	0x80040bdb	-3.71595e-40
93	0x800316cc	-2.83684e-40
94	0x800111da	-9.824e-41
95	0x00017c38	1.36397e-40
96	0x80047914	-4.10777e-40
97	0x8003ae50	-3.38038e-40
98	0x0002a576	2.43027e-40
99	0x80025b39	-2.16396e-40
100	0x0004239b	3.80115e-40
101	0x000031be	1.7844e-41
102	0x80045ade	-3.99939e-40
103	0x00024f55	2.1213e-40
104	0x800110d7	-9.7876e-41
105	0x80027fda	-2.29535e-40
106	0x0004aa71	4.28485e-40
107	0x8000ed9d	-8.524e-41
108	0x000469c3	4.05282e-40
109	0x800368cb	-3.13099e-40
110	0x00008fc7	5.1578e-41
111	0x0002a51d	2.42902e-40
112	0x8003a679	-3.35226e-40
113	0x0000e90d	8.3603e-41
114	0x0000043d	1.52e-42
115	0x0001023b	9.2636e-41
116	0x8000d2f2	-7.5673e-41
117	0x0003f6c2	3.64027e-40
118	0x8001bac6	-1.58837e-40
119	0x0004476e	3.92966e-40
120	0x80000b61	-4.082e-42
121	0x00046184	4.02324e-40
122	0x000474a0	4.09179e-40
123	0x80024b35	-2.1065e-40
124	0x00021e01	1.94434e-40
125	0x00047e64	4.12682e-40
126	0x80037d93	-3.20554e-40
127	0x8004a54d	-4.26641e-40
128	0x800099a6	-5.5119e-41
129	0x8000f35f	-8.7305e-41
130	0x800032b9	-1.8196e-41
131	0x800127a0	-1.0605e-40
132	0x000288db	2.32765e-40
133	0x8003d862	-3.5313e-40
134	0x0003db29	3.54126e-40
135	0x0001c327	1.61843e-40
136	0x80026c97	-2.22626e-40
137	0x00011c62	1.02017e-40
138	0x80033ff9	-2.98456e-40
139	0x00025735	2.14955e-40
140	0x0004ae25	4.29813e-40
141	0x0000d2d4	7.5631e-41
142	0x8001d18f	-1.67011e-40
143	0x8003e547	-3.57756e-40
144	0x0003fc3e	3.65994e-40
145	0x0002af06	2.46458e-40
146	0x8003e98c	-3.59287e-40
147	0x000007f2	2.85e-42
148	0x8002f707	-2.72288e-40
149	0x80047b97	-4.11678e-40
150	0x8000eab4	-8.4196e-41
151	0x80021188	-1.8996e-40
152	0x80044ac6	-3.94166e-40
153	0x80041fd8	-3.78765e-40
154	0x00002a59	1.5191e-41
155	0x8003f060	-3.61737e-40
156	0x8002d676	-2.60605e-40
157	0x80021866	-1.92424e-40
158	0x0003038a	2.76776e-40
159	0x000217b2	1.92171e-40
160	0x8003778c	-3.18392e-40
161	0x8003cb6f	-3.48485e-40
162	0x8002722b	-2.24627e-40
163	0x0002a9d1	2.4459e-40
164	0x000147f0	1.17642e-40
165	0x0004002d	3.67405e-40
166	0x000282e1	2.30621e-40
167	0x00025060	2.12504e-40
168	0x00023800	2.0376e-40
169	0x80024fa5	-2.12242e-40
170	0x0003dd23	3.54835e-40
171	0x8004982c	-4.21931e-40
172	0x8002c1bc	-2.5317e-40
173	0x00036022	3.09992e-40
174	0x00002ed0	1.6793e-41
175	0x0004bb69	4.34572e-40
176	0x0004a207	4.25466e-40
177	0x000428d5	3.8199e-40
178	0x8002776e	-2.26514e-40
179	0x800370e1	-3.16e-40
180	0x0000f8e3	8.9284e-41
181	0x8001caf3	-1.6464e-40
182	0x8003be8c	-3.43862e-40
183	0x80014811	-1.17688e-40
184	0x00043825	3.87483e-40
185	0x8003863e	-3.23664e-40
186	0x0002feae	2.75033e-40
187	0x80029827	-2.38253e-40
188	0x00044c60	3.9474e-40
189	0x8002a128	-2.41483e-40
190	0x8002843b	-2.31106e-40
191	0x8002d78c	-2.60995e-40
192	0x00035f58	3.0971e-40
193	0x00044eac	3.95564e-40
194	0x8003d019	-3.50158e-40
195	0x800022f6	-1.2542e-41
196	0x80010684	-9.4173e-41
197	0x0001114e	9.8043e-41
198	0x0001c267	1.61574e-40
199	0x00035fe0	3.099e-40
200	0x00049050	4.19112e-40
201	0x80036ffb	-3.15678e-40
202	0x000032a4	1.8166e-41
203	0x000194bd	1.45193e-40
204	0x0004b456	4.32034e-40
205	0x800094ef	-5.3427e-41
206	0x00006961	3.7803e-41
207	0x0004262f	3.8104e-40
208	0x00022f82	2.00714e-40
209	0x8000cc8e	-7.338e-41
210	0x0002976f	2.37995e-40
211	0x00030c11	2.79835e-40
212	0x000187e3	1.40582e-40
213	0x8002a550	-2.42974e-40
214	0x00045cb4	4.00598e-40
215	0x00023aad	2.0472e-40
216	0x8000635b	-3.5642e-41
217	0x80015018	-1.20568e-40
218	0x0003ef61	3.6138e-40
219	0x000498f9	4.22218e-40
220	0x80003344	-1.839e-41
221	0x00006ca4	3.8973e-41
222	0x80018035	-1.37828e-40
223	0x8002470a	-2.09155e-40
224	0x0000786e	4.3202e-41
225	0x800044da	-2.4699e-41
226	0x80021eb6	-1.94688e-40
227	0x80044a13	-3.93915e-40
228	0x0000d916	7.7876e-41
229	0x80002791	-1.4194e-41
230	0x80006463	-3.6012e-41
231	0x00016387	1.27539e-40
232	0x000001db	6.66e-43
233	0x0002381f	2.03803e-40
234	0x0004a459	4.26299e-40
235	0x800448c4	-3.93445e-40
236	0x8001b321	-1.56095e-40
237	0x00046d97	4.06655e-40
238	0x800495b7	-4.2105e-40
239	0x00036ba2	3.14118e-40
240	0x8000d9fe	-7.8201e-41
241	0x80004092	-2.3163e-41
242	0x0002bb49	2.50856e-40
243	0x8001ed87	-1.77044e-40
244	0x00009b16	5.5634e-41
245	0x00037686	3.18025e-40
246	0x800357d4	-3.07013e-40
247	0x0003ec58	3.6029e-40
248	0x0003ce52	3.4952e-40
249	0x8004a5de	-4.26844e-40
250	0x8003199d	-2.84695e-40
251	0x8001fa84	-1.81704e-40
252	0x0002c5cd	2.54629e-40
253	0x800090fb	-5.2009e-41
254	0x8003cf46	-3.49862e-40
255	0x0002b86d	2.4983e-40

localization.0.bias f4 [32]
0	0x8148f865	-3.6912413e-38
1	0x811caa11	-2.8774691e-38
2	0x81cd8e84	-7.5509607e-38
3	0x807621de	-1.0848738e-38
4	0x8094f266	-1.367861e-38
5	0x80d24a53	-1.9312117e-38
6	0x01bee254	7.011974e-38
7	0x8042a7dc	-6.12136e-39
8	0x00bbc247	1.7242931e-38
9	0x8193777f	-5.417074e-38
10	0x80b1b109	-1.6318391e-38
11	0x800b920f	-1.062586e-39
12	0x817753d6	-4.5426884e-38
13	0x803e0668	-5.696099e-39
14	0x80a16a24	-1.4823591e-38
15	0x80f39d86	-2.2372534e-38
16	0x809eda66	-1.4588355e-38
17	0x001ba8f5	2.540169e-39
18	0x00cedf1b	1.8998147e-38
19	0x00e2c3ca	2.0825058e-38
20	0x001c6574	2.607788e-39
21	0x8031dd29	-4.579277e-39
22	0x8129a03b	-3.1155357e-38
23	0x0028862f	3.721556e-39
24	0x822862d4	-1.2371053e-37
25	0x00006d05	3.9109e-41
26	0x8007ccee	-7.16363e-40
27	0x000a0745	9.20963e-40
28	0x807f2f07	-1.1679978e-38
29	0x819d468c	-5.777392e-38
30	0x80cf7ede	-1.9055459e-38
31	0x81289c89	-3.0969035e-38

localization.3.weight f4 [32, 32, 5, 5]
0	0x80018ed6	-1.43075e-40
1	0x00032dbe	2.91916e-40
2	0x80048d0b	-4.17939e-40
3	0x0001f906	1.81168e-40
4	0x0003fc4e	3.66016e-40
5	0x0004b27c	4.3137e-40
6	0x80025f02	-2.17753e-40
7	0x8001ec1b	-1.76534e-40
8	0x000099d3	5.5182e-41
9	0x000469aa	4.05247e-40
10	0x800166a7	-1.2866e-40
11	0x80026d08	-2.22784e-40
12	0x00002327	1.261e-41
13	0x80006bb0	-3.8631e-41
14	0x00020ea0	1.88917e-40
15	0x80028d25	-2.34304e-40
16	0x0004885c	4.16259e-40
17	0x0003e57b	3.57829e-40
18	0x8003e526	-3.5771e-40
19	0x8002878e	-2.32299e-40
20	0x00047f8b	4.13096e-40
21	0x00006c90	3.8945e-41
22	0x00035fdd	3.09896e-40
23	0x00039444	3.28694e-40
24	0x80023055	-2.01009e-40
25	0x8003adf8	-3.37915e-40
26	0x80023195	-2.01458e-40
27	0x8000d503	-7.6414e-41
28	0x0000f362	8.731e-41
29	0x0002d0d9	2.58591e-40
30	0x80040234	-3.68132e-40
31	0x80002fc1	-1.7131e-41
32	0x0002ae96	2.463e-40
33	0x000338b0	2.95842e-40
34	0x0003d5d3	3.52212e-40
35	0x00002166	1.1981e-41
36	0x800346a8	-3.00853e-40
37	0x0001fdd1	1.82888e-40
38	0x0001d525	1.68297e-40
39	0x8000db6c	-7.8714e-41
40	0x8002b806	-2.49686e-40
41	0x00009fa4	5.7268e-41
42	0x00021c23	1.93765e-40
43	0x80013112	-1.09439e-40
44	0x000326cd	2.89426e-40
45	0x0001fa50	1.81631e-40
46	0x0002d918	2.6155e-40
47	0x00041c40	3.77476e-40
48	0x80038cb5	-3.25983e-40
49	0x00049e7e	4.24198e-40
50	0x00046ae3	4.05686e-40
51	0x0003aeb7	3.38182e-40
52	0x00036248	3.10763e-40
53	0x8003980d	-3.30052e-40
54	0x0004d380	4.43214e-40
55	0x000064e8	3.6198e-41
56	0x0003c869	3.474e-40
57	0x00042db2	3.83734e-40
58	0x8001058d	-9.3827e-41
59	0x0001352c	1.1091e-40
60	0x0001c694	1.63072e-40
61	0x8002c257	-2.53387e-40
62	0x00000529	1.851e-42
63	0x800202d6	-1.84688e-40
64	0x80049c79	-4.23474e-40
65	0x0000439c	2.4254e-41
66	0x80018aef	-1.41675e-40
67	0x0004580c	3.98927e-40
68	0x000482c8	4.14257e-40
69	0x0003046c	2.77093e-40
70	0x00008e44	5.1035e-41
71	0x00039f04	3.3255e-40
72	0x80010b39	-9.5861e-41
73	0x0002ede4	2.6901e-40
74	0x0000b99e	6.6587e-41
75	0x0000f447	8.763e-41
76	0x80021f5a	-1.94918e-40
77	0x80045bea	-4.00315e-40
78	0x800357c7	-3.06995e-40
79	0x00047259	4.08362e-40
80	0x8004c1f1	-4.36915e-40
81	0x000089ad	4.9389e-41
82	0x80006ff5	-4.0163e-41
83	0x0000e07e	8.0533e-41
84	0x0004b948	4.33808e-40
85	0x80031915	-2.84504e-40
86	0x000483e5	4.14657e-40
87	0x0000e976	8.375e-41
88	0x00036646	3.12195e-40
89	0x00042e8f	3.84044e-40
90	0x00044229	3.91076e-40
91	0x80005b65	-3.2786e-41
92	0x80019ef1	-1.48853e-40
93	0x80036583	-3.11922e-40
94	0x00024ed3	2.11948e-40
95	0x8003f731	-3.64182e-40
96	0x00044131	3.90728e-40
97	0x0000b999	6.658e-41
98	0x80011fbc	-1.0322e-40
99	0x8000df80	-8.0177e-41
100	0x0004742a	4.09014e-40
101	0x8004d410	-4.43416e-40
102	0x0001cf6a	1.66242e-40
103	0x8000f655	-8.8367e-41
104	0x80038a17	-3.25044e-40
105	0x0001f7f5	1.80786e-40
106	0x00004996	2.6398e-41
107	0x00042f79	3.84372e-40
108	0x0002378b	2.03596e-40
109	0x80049f59	-4.24505e-40
110	0x80004e35	-2.8055e-41
111	0x00011adc	1.01471e-40
112	0x0003580c	3.07092e-40
113	0x80030045	-2.75603e-40
114	0x0003579c	3.06935e-40
115	0x800445d0	-3.92386e-40
116	0x8002cb0a	-2.56508e-40
117	0x8003f38d	-3.62876e-40
118	0x8003850c	-3.23235e-40
119	0x80017034	-1.32086e-40
120	0x00034ad2	3.02347e-40
121	0x0002b4b3	2.48494e-40
122	0x0002c315	2.53653e-40
123	0x0000f2c7	8.7092e-41
124	0x00042c85	3.83313e-40
125	0x8004a252	-4.25572e-40
126	0x80049626	-4.21205e-40
127	0x00044cb3	3.94856e-40
128	0x8002be99	-2.52045e-40
129	0x00042f26	3.84256e-40
130	0x80034884	-3.0152e-40
131	0x00011665	9.9869e-41
132	0x8001a720	-1.51789e-40
133	0x80010725	-9.4398e-41
134	0x8002cde8	-2.57536e-40
135	0x80045e74	-4.01225e-40
136	0x0001e07a	1.72363e-40
137	0x0004a7ad	4.27493e-40
138	0x000174e3	1.33767e-40
139	0x8002fb62	-2.7385e-40
140	0x8000d4cf	-7.6341e-41
141	0x8000d4bb	-7.6313e-41
142	0x80029477	-2.3693e-40
143	0x80043ce9	-3.89192e-40
144	0x00021143	1.89863e-40
145	0x80032bc9	-2.91214e-40
146	0x0002a041	2.41159e-40
147	0x8004040d	-3.68795e-40
148	0x0001325f	1.09905e-40
149	0x8001649a	-1.27925e-40
150	0x0001ade2	1.54213e-40
151	0x800057d0	-3.1501e-41
152	0x80020d1a	-1.88371e-40
153	0x80008e22	-5.0988e-41
154	0x8000edd6	-8.532e-41
155	0x800103cc	-9.3198e-41
156	0x80032b6b	-2.91082e-40
157	0x00030dce	2.80459e-40
158	0x8004ac01	-4.29045e-40
159	0x800012e4	-6.777e-42
160	0x8001f8d9	-1.81105e-40
161	0x80023e80	-2.06092e-40
162	0x80043b7f	-3.88685e-40
163	0x8003b6ba	-3.41056e-40
164	0x8003e8a0	-3.58957e-40
165	0x0003ae65	3.38067e-40
166	0x80032379	-2.88232e-40
167	0x8004be2e	-4.35566e-40
168	0x0003e8a1	3.58958e-40
169	0x0003ecb7	3.60424e-40
170	0x8004417c	-3.90833e-40
171	0x80021d50	-1.94186e-40
172	0x0002c724	2.55109e-40
173	0x00009acd	5.5532e-41
174	0x8001506e	-1.20688e-40
175	0x80025b11	-2.1634e-40
176	0x80049c7d	-4.2348e-40
177	0x0000c97a	7.2276e-41
178	0x0003498a	3.01887e-40
179	0x000136cb	1.11492e-40
180	0x0003fd67	3.6641e-40
181	0x8000273f	-1.4079e-41
182	0x00024c4e	2.11044e-40
183	0x8002807d	-2.29764e-40
184	0x8003eb0b	-3.59824e-40
185	0x800067e6	-3.7272e-41
186	0x0002f939	2.73075e-40
187	0x0000e127	8.077e-41
188	0x000261e4	2.18788e-40
189	0x00041fbe	3.78729e-40
190	0x00023995	2.04328e-40
191	0x000298dc	2.38507e-40
192	0x8000ca10	-7.2486e-41
193	0x800408ea	-3.7054e-40
194	0x80007b84	-4.4309e-41
195	0x0001782f	1.34949e-40
196	0x0002c911	2.558e-40
197	0x00031e13	2.86295e-40
198	0x80033bcd	-2.96959e-40
199	0x0001e258	1.73032e-40
200	0x80048a12	-4.16872e-40
201	0x00043f7b	3.90114e-40
202	0x0004b068	4.30625e-40
203	0x8000ee5d	-8.5509e-41
204	0x80012f9a	-1.08912e-40
205	0x800453d7	-3.97418e-40
206	0x0000f59b	8.8107e-41
207	0x000064ae	3.6117e-41
208	0x00047cbb	4.12087e-40
209	0x000397c6	3.29953e-40
210	0x8004a207	-4.25466e-40
211	0x00001e6e	1.0916e-41
212	0x00017037	1.3209e-40
213	0x000474a1	4.0918e-40
214	0x00007afd	4.412e-41
215	0x0003fe20	3.6667e-40
216	0x00011bbd	1.01786e-40
217	0x0003adae	3.37811e-40
218	0x8000d722	-7.7175e-41
219	0x800444cf	-3.92026e-40
220	0x00043f74	3.90105e-40
221	0x80037d08	-3.20359e-40
222	0x80005f05	-3.4087e-41
223	0x80025d9d	-2.17253e-40
224	0x80039cf2	-3.31808e-40
225	0x00010100	9.2194e-41
226	0x80022289	-1.9606e-40
227	0x000338f1	2.95933e-40
228	0x800337fc	-2.9559e-40
229	0x0003f965	3.64972e-40
230	0x0001bd8e	1.59835e-40
231	0x0001e5e6	1.74308e-40
232	0x0002f558	2.71684e-40
233	0x0002b38d	2.48082e-40
234	0x80029e55	-2.4047e-40
235	0x800049cc	-2.6473e-41
236	0x8004b6e3	-4.3295e-40
237	0x8002fc60	-2.74206e-40
238	0x80020ac7	-1.87537e-40
239	0x00048b8b	4.174e-40
240	0x00027ed5	2.2917e-40
241	0x800377ee	-3.18529e-40
242	0x80026d78	-2.22941e-40
243	0x000425ba	3.80876e-40
244	0x00017a89	1.35793e-40
245	0x00025ba0	2.1654e-40
246	0x80012ee5	-1.08658e-40
247	0x000102ef	9.2888e-41
248	0x8002ce13	-2.57596e-40
249	0x00001020	5.785e-42
250	0x00031866	2.84259e-40
251	0x8004bba4	-4.34655e-40
252	0x00004521	2.4799e-41
253	0x00029218	2.3608e-40
254	0x0002e145	2.64482e-40
255	0x0001e63f	1.74432e-40

localization.3.bias f4 [32]
0	0xb10faea2	-2.0908506e-09
1	0xb6933aba	-4.387778e-06
2	0xb9a2d9a1	-0.00031061194
3	0xb19f2bd4	-4.6324917e-09
4	0xa8cc8d86	-2.2709926e-14
5	0xb6a7d05b	-5.0012436e-06
6	0xa1c9690c	-1.3648095e-18
7	0xb2839b0a	-1.532091e-08
8	0xa98f02d5	-6.350967e-14
9	0xba82c324	-0.0009976369
10	0xb9e76ab8	-0.00044139265
11	0xba206730	-0.0006118892
12	0x3b8c0fe7	0.0042743566
13	0xb731351d	-1.05623885e-05
14	0xaf11eea6	-1.3272458e-10
15	0xba79b848	-0.0009526056
16	0xbb19c44c	-0.002346295
17	0x8002ea28	-2.6767e-40
18	0xbab286b7	-0.001362047
19	0x3b2b5574	0.0026143463
20	0xb77446e2	-1.4560037e-05
21	0xb7efa47e	-2.8567618e-05
22	0x836f0d60	-7.025114e-37
23	0x91f11e84	-3.8041902e-28
24	0xb2d870f5	-2.5197076e-08
25	0x825ad4d5	-1.607719e-37
26	0x8347fb49	-5.8769305e-37
27	0xb6617da3	-3.3600743e-06
28	0xb78955c0	-1.6371603e-05
29	0x8770db65	-1.8120067e-34
30	0x3c26f3a6	0.010189926
31	0xb898fd0d	-7.295059e-05

fc_loc.0.weight f4 [32, 896]
0	0x80044187	-3.90849e-40
1	0x8004666d	-4.04085e-40
2	0x80018286	-1.38658e-40
3	0x80017f56	-1.37515e-40
4	0x800100d8	-9.2138e-41
5	0x8000f854	-8.9083e-41
6	0x8001e1fa	-1.729e-40
7	0x8000eec9	-8.566e-41
8	0x8001839b	-1.39047e-40
9	0x80044421	-3.91782e-40
10	0x8000fc0a	-9.0415e-41
11	0x80044374	-3.9154e-40
12	0x800183cd	-1.39117e-40
13	0x8004848b	-4.1489e-40
14	0x800465fa	-4.03924e-40
15	0x80018b11	-1.41723e-40
16	0x8000e8b5	-8.348e-41
17	0x80018f0a	-1.43148e-40
18	0x80017eff	-1.37393e-40
19	0x8000fdd6	-9.1059e-41
20	0x8000e950	-8.3697e-41
21	0x8001946d	-1.4508e-40
22	0x80018c6b	-1.42208e-40
23	0x80018f22	-1.43182e-40
24	0x8001672c	-1.28847e-40
25	0x80015d21	-1.25244e-40
26	0x800469db	-4.05316e-40
27	0x800184d6	-1.39488e-40
28	0x8003f175	-3.62125e-40
29	0x00006f09	3.9832e-41
30	0x8004b545	-4.32369e-40
31	0x00021221	1.90174e-40
32	0x80042ef8	-3.84191e-40
33	0x0003a0a5	3.33135e-40
34	0x000027a9	1.4227e-41
35	0x80045e58	-4.01186e-40
36	0x0000b373	6.4374e-41
37	0x00046f71	4.0732e-40
38	0x800067e0	-3.7263e-41
39	0x000486a0	4.15636e-40
40	0x800393e3	-3.28558e-40
41	0x8001a96d	-1.52614e-40
42	0x00007c04	4.4488e-41
43	0x00003a0a	2.082e-41
44	0x800464d0	-4.03507e-40
45	0x80018ff8	-1.43482e-40
46	0x80023e98	-2.06125e-40
47	0x000166b1	1.28674e-40
48	0x8002bd66	-2.51614e-40
49	0x8003ee7c	-3.61059e-40
50	0x80048127	-4.13673e-40
51	0x00040f1d	3.72764e-40
52	0x8002b333	-2.47956e-40
53	0x80008cf0	-5.0559e-41
54	0x800027ea	-1.4318e-41
55	0x80027c6e	-2.28308e-40
56	0x800476f2	-4.10012e-40
57	0x800476f2	-4.10012e-40
58	0x800476f2	-4.10012e-40
59	0x800476f2	-4.10012e-40
60	0x800476f2	-4.10012e-40
61	0x800476f2	-4.10012e-40
62	0x800476f2	-4.10012e-40
63	0x800476f2	-4.10012e-40
64	0x800476f2	-4.10012e-40
65	0x800476f2	-4.10012e-40
66	0x800476f2	-4.10012e-40
67	0x800476f2	-4.10012e-40
68	0x800476f2	-4.10012e-40
69	0x800476f2	-4.10012e-40
70	0x800476f2	-4.10012e-40
71	0x800476f2	-4.10012e-40
72	0x800476f2	-4.10012e-40
73	0x800476f2	-4.10012e-40
74	0x800476f2	-4.10012e-40
75	0x800476f2	-4.10012e-40
76	0x800476f2	-4.10012e-40
77	0x800476f2	-4.10012e-40
78	0x800476f2	-4.10012e-40
79	0x800476f2	-4.10012e-40
80	0x800476f2	-4.10012e-40
81	0x800476f2	-4.10012e-40
82	0x800476f2	-4.10012e-40
83	0x800476f2	-4.10012e-40
84	0x800068da	-3.7614e-41
85	0x8002e5d9	-2.66125e-40
86	0x80025f29	-2.17808e-40
87	0x80048e02	-4.18285e-40
88	0x800268a3	-2.21208e-40
89	0x8000603a	-3.452e-41
90	0x8000f4fa	-8.7881e-41
91	0x80044b22	-3.94295e-40
92	0x80038e3a	-3.26528e-40
93	0x80004a27	-2.6601e-41
94	0x00043aa3	3.88377e-40
95	0x000168a2	1.2937e-40
96	0x80016a49	-1.29963e-40
97	0x800484a1	-4.1492e-40
98	0x0004455b	3.92222e-40
99	0x0000789c	4.3266e-41
100	0x8000e257	-8.1195e-41
101	0x8003e817	-3.58765e-40
102	0x80033116	-2.93115e-40
103	0x8003e229	-3.56637e-40
104	0x0003988b	3.30229e-40
105	0x800103b6	-9.3167e-41
106	0x8001f696	-1.80294e-40
107	0x8001928d	-1.44408e-40
108	0x800092cd	-5.2662e-41
109	0x800033b5	-1.8549e-41
110	0x80026709	-2.20633e-40
111	0x800470ce	-4.07809e-40
112	0x8004477e	-3.92989e-40
113	0x0003d2b2	3.5109e-40
114	0x8001c205	-1.61437e-40
115	0x00003875	2.0253e-41
116	0x80011084	-9.776e-41
117	0x80019083	-1.43677e-40
118	0x8002d5b6	-2.60336e-40
119	0x8004e1b1	-4.48305e-40
120	0x80016836	-1.2922e-40
121	0x00001df0	1.074e-41
122	0x80036b4e	-3.14e-40
123	0x8000148a	-7.368e-42
124	0x8003411e	-2.98866e-40
125	0x0000ca3a	7.2545e-41
126	0x800423c9	-3.80179e-40
127	0x0002c97c	2.5595e-40
128	0x8004dce8	-4.46588e-40
129	0x80043b2b	-3.88567e-40
130	0x8002375e	-2.03533e-40
131	0x0000e243	8.1167e-41
132	0x0000cf66	7.44e-41
133	0x0000a637	5.9627e-41
134	0x80038a98	-3.25225e-40
135	0x00044c29	3.94663e-40
136	0x00010441	9.3362e-41
137	0x0004cc75	4.40687e-40
138	0x00024963	2.09997e-40
139	0x8003d7cb	-3.52918e-40
140	0x000481ac	4.1386e-40
141	0x8002ad54	-2.4585e-40
142	0x80031375	-2.82486e-40
143	0x8002c254	-2.53383e-40
144	0x8002e604	-2.66185e-40
145	0x80044431	-3.91804e-40
146	0x0003ab6f	3.37005e-40
147	0x800020db	-1.1786e-41
148	0x8001ddfe	-1.71471e-40
149	0x8003aa8d	-3.36689e-40
150	0x0000bec7	6.8438e-41
151	0x800485b8	-4.15311e-40
152	0x8002ad5b	-2.45859e-40
153	0x0003f0e1	3.61918e-40
154	0x8004581d	-3.98951e-40
155	0x00002b89	1.5617e-41
156	0x000411ce	3.73729e-40
157	0x00027fac	2.29471e-40
158	0x8004a5b9	-4.26792e-40
159	0x0000bf1e	6.856e-41
160	0x800127e6	-1.06148e-40
161	0x8000f5ce	-8.8178e-41
162	0x8000cc33	-7.3253e-41
163	0x80012378	-1.04559e-40
164	0x800206a7	-1.86057e-40
165	0x80019906	-1.4673e-40
166	0x0001f826	1.80854e-40
167	0x00013165	1.09555e-40
168	0x00044d0d	3.94983e-40
169	0x80012449	-1.04852e-40
170	0x8000fb7f	-9.022e-41
171	0x80041022	-3.7313e-40
172	0x80046c9c	-4.06304e-40
173	0x0004031a	3.68455e-40
174	0x8002f5a6	-2.71793e-40
175	0x8001131c	-9.869e-41
176	0x800199d1	-1.47014e-40
177	0x000173fa	1.3344e-40
178	0x0003d8cb	3.53277e-40
179	0x0003ac34	3.37281e-40
180	0x000201b6	1.84285e-40
181	0x0000e0a9	8.0593e-41
182	0x00001f4c	1.1227e-41
183	0x00040c21	3.71693e-40
184	0x80015073	-1.20695e-40
185	0x0001bae0	1.58874e-40
186	0x0003d78a	3.52827e-40
187	0x80032dc0	-2.91918e-40
188	0x8000c0cb	-6.9161e-41
189	0x0004b7e2	4.33307e-40
190	0x80006ffe	-4.0175e-41
191	0x0001ee2d	1.77277e-40
192	0x8004044c	-3.68883e-40
193	0x80047560	-4.09448e-40
194	0x0001033c	9.2996e-41
195	0x80041c06	-3.77395e-40
196	0x1e14555e	7.852708e-21
197	0x1e14555e	7.852708e-21
198	0x1e14555e	7.852708e-21
199	0x1e14555e	7.852708e-21
200	0x1e14555e	7.852708e-21
201	0x1e14555e	7.852708e-21
202	0x1e14555e	7.852708e-21
203	0x1e14555e	7.852708e-21
204	0x1e14555e	7.852708e-21
205	0x1e14555e	7.852708e-21
206	0x1e14555e	7.852708e-21
207	0x1e14555e	7.852708e-21
208	0x1e14555e	7.852708e-21
209	0x1e14555e	7.852708e-21
210	0x1e14555e	7.852708e-21
211	0x1e14555e	7.852708e-21
212	0x1e14555e	7.852708e-21
213	0x1e14555e	7.852708e-21
214	0x1e14555e	7.852708e-21
215	0x1e14555e	7.852708e-21
216	0x1e14555e	7.852708e-21
217	0x1e14555e	7.852708e-21
218	0x1e14555e	7.852708e-21
219	0x1e14555e	7.852708e-21
220	0x1e14555e	7.852708e-21
221	0x1e14555e	7.852708e-21
222	0x1e14555e	7.852708e-21
223	0x1e14555e	7.852708e-21
224	0xa724ce6a	-2.287147e-15
225	0xa724ce6a	-2.287147e-15
226	0xa724ce6a	-2.287147e-15
227	0xa724ce6a	-2.287147e-15
228	0xa724ce6a	-2.287147e-15
229	0xa724ce6a	-2.287147e-15
230	0xa724ce6a	-2.287147e-15
231	0xa724ce6a	-2.287147e-15
232	0xa724ce6a	-2.287147e-15
233	0xa724ce6a	-2.287147e-15
234	0xa724ce6a	-2.287147e-15
235	0xa724ce6a	-2.287147e-15
236	0xa724ce6a	-2.287147e-15
237	0xa724ce6a	-2.287147e-15
238	0xa724ce6a	-2.287147e-15
239	0xa724ce6a	-2.287147e-15
240	0xa724ce6a	-2.287147e-15
241	0xa724ce6a	-2.287147e-15
242	0xa724ce6a	-2.287147e-15
243	0xa724ce6a	-2.287147e-15
244	0xa724ce6a	-2.287147e-15
245	0xa724ce6a	-2.287147e-15
246	0xa724ce6a	-2.287147e-15
247	0xa724ce6a	-2.287147e-15
248	0xa724ce6a	-2.287147e-15
249	0xa724ce6a	-2.287147e-15
250	0xa724ce6a	-2.287147e-15
251	0xa724ce6a	-2.287147e-15
252	0x00031a93	2.8504e-40
253	0x8002de74	-2.63472e-40
254	0x0003c517	3.46209e-40
255	0x8002f2a2	-2.70711e-40

fc_loc.0.bias f4 [32]
0	0x3c4782e3	0.012177202
1	0x04be822b	4.4788326e-36
2	0xa5c6ab90	-3.446378e-16
3	0xbb311413	-0.0027020022
4	0xbaff8955	-0.0019495884
5	0xbb0a9bee	-0.002115007
6	0xba9d8ef6	-0.0012020755
7	0xb8307e85	-4.20795e-05
8	0xba275f44	-0.000638474
9	0xbaaef727	-0.0013348804
10	0xacc7fb08	-5.6837902e-12
11	0x3b097b69	0.00209781
12	0xb666af9f	-3.4374896e-06
13	0xb9cf0253	-0.00039483848
14	0x3b2018a0	0.002442874
15	0xb7c7d349	-2.3821036e-05
16	0xba02c4d8	-0.00049884384
17	0xba39ee3f	-0.00070926914
18	0x9c2b791e	-5.6735694e-22
19	0xb82f15d7	-4.174359e-05
20	0x823a8a36	-1.3704786e-37
21	0xba324b1d	-0.0006801354
22	0xbb0d245c	-0.0021536564
23	0xb99860d7	-0.0002906385
24	0x3841d925	4.6217017e-05
25	0x3c2274ac	0.009915512
26	0xa75c33a7	-3.0559134e-15
27	0xba9a38be	-0.0011766178
28	0xb90d886e	-0.00013497632
29	0xb94e77f0	-0.00019690371
30	0x3b2bb282	0.0026198928
31	0xa955ef11	-4.7502858e-14

fc_loc.2.weight f4 [6, 32]
0	0xbc0d096f	-0.008608206
1	0x84b8af28	-4.3419048e-36
2	0x24a87310	7.305331e-17
3	0xb73364ef	-1.0692732e-05
4	0xbb62a5b5	-0.0034583632
5	0x3b0754ba	0.0020649866
6	0xba9f20ba	-0.001214049
7	0xad9b5525	-1.7659272e-11
8	0xbab3f95f	-0.0013730935
9	0xbb52cd18	-0.0032165702
10	0xabcd9244	-1.4606723e-12
11	0xb9c1f485	-0.0003699401
12	0xa735df35	-2.5239797e-15
13	0x39d471d1	0.0004052059
14	0x3bcdb14e	0.00627724
15	0x37485339	1.1940306e-05
16	0x3a1a40b8	0.00058842776
17	0x370f15d8	8.52855e-06
18	0x9a5355e6	-4.3703166e-23
19	0x3a6ae079	0.00089598406
20	0x00bba15c	1.7231123e-38
21	0xb8c5658c	-9.4126066e-05
22	0x3b8ac2a1	0.0042346274
23	0xb79edc35	-1.893761e-05
24	0xbb43a0ca	-0.0029850476
25	0x3c2fa79d	0.010721114
26	0x2780beeb	3.573413e-15
27	0x33ec91d6	1.1016134e-07
28	0x3abc60ce	0.0014372112
29	0xb47e0970	-2.3659027e-07
30	0xbb4f7b16	-0.0031659058
31	0xa0985f86	-2.5813014e-19
32	0xba126802	-0.00055849564
33	0x857e2320	-1.1949474e-35
34	0x25da4c56	3.78687e-16
35	0xa9ca0712	-8.9718285e-14
36	0x3b186541	0.0023253711
37	0xbb6bdf5c	-0.0035991287
38	0x3ab724b2	0.0013972728
39	0x0001156a	9.9517e-41
40	0x3ba92787	0.0051621827
41	0x3b890f43	0.0041827275
42	0x2b85cd12	9.507137e-13
43	0xbba882df	-0.005142554
44	0x92dd57f3	-1.3968742e-27
45	0xb81dccb9	-3.762238e-05
46	0xb7f120a9	-2.8744647e-05
47	0xb6712104	-3.5931016e-06
48	0x397a14fa	0.00023849672
49	0xb807aa56	-3.2345146e-05
50	0x99fd8718	-2.6214151e-23
51	0x3b522341	0.003206447
52	0x806dc01a	-1.0078982e-38
53	0xb9b62352	-0.0003474006
54	0xbb0740c4	-0.0020637969
55	0x23a4b317	1.7856763e-17
56	0x3b2593fd	0.002526521
57	0x3b0620d5	0.0020466347
58	0xa788141a	-3.7769377e-15
59	0x3509ddee	5.135943e-07
60	0x3b4eae9a	0.0031537176
61	0x3a18b3ab	0.00058251125
62	0x3b9cad1a	0.0047813775
63	0xa2b79445	-4.9759236e-18
64	0xbbd324f7	-0.0064436155
65	0x85f5ef70	-2.3127645e-35
66	0xa48d3bf7	-6.125059e-17
67	0x3950fe7f	0.00019931233
68	0x3a915a42	0.0011089521
69	0x3b00a9bb	0.0019632417
70	0x3b03acba	0.0020091967
71	0xb621888e	-2.4070355e-06
72	0x3b00cafa	0.0019652233
73	0xba8d1ddb	-0.0010766344
74	0x2b24d4f6	5.8560047e-13
75	0xbb800461	-0.003906772
76	0x2ef2fa69	1.1049368e-10
77	0xba280c65	-0.00064105383
78	0x3b301b20	0.0026871637
79	0x38084e45	3.249782e-05
80	0x3a67e6f1	0.00088463636
81	0xb913bfc5	-0.00014090452
82	0x9b8d6fd7	-2.3398768e-22
83	0x3b4f1048	0.0031595398
84	0x814898f7	-3.6843945e-38
85	0x395358f7	0.0002015567
86	0xbafccb90	-0.001928674
87	0x3a1604d7	0.0005722767
88	0x3abeaa07	0.0014546522
89	0x3c3a1c5b	0.0113592995
90	0x28e1150e	2.4989149e-14
91	0xb892e857	-7.005099e-05
92	0xbaf78adf	-0.0018885991
93	0x39982314	0.00029017834
94	0xbb705136	-0.00366695
95	0x880e76a4	-4.287103e-34
96	0xbc58de98	-0.013236664
97	0x05b93d3d	1.7419812e-35
98	0x260363b7	4.5584894e-16
99	0x8003c9c4	-3.47886e-40
100	0xbaf0c017	-0.0018367794
101	0xbabfdb76	-0.0014637548
102	0xba3b5fd8	-0.0007147766
103	0x830c8b2e	-4.1302073e-37
104	0x3a482878	0.0007635425
105	0xbaa7c934	-0.0012801052
106	0x29897acd	6.105325e-14
107	0x39f458ad	0.00046605375
108	0x85146fe5	-6.979478e-36
109	0xb9e0ef4b	-0.00042902897
110	0x3c02093d	0.007936773
111	0x36aa1e59	5.0699277e-06
112	0xb86a20b7	-5.5820416e-05
113	0xb2801022	-1.4908498e-08
114	0x988d765b	-3.6567154e-24
115	0x3a493b8a	0.00076764135
116	0x00161df9	2.031133e-39
117	0xb17773ba	-3.6009014e-09
118	0x38352ee9	4.319745e-05
119	0x15bfe86f	7.7511e-26
120	0xbc1ee2d1	-0.009697632
121	0x3aa756c7	0.001276695
122	0xa6dcbea9	-1.5317245e-15
123	0x12d654e5	1.3526227e-27
124	0xb943ee9d	-0.0001868554
125	0xa8b117d8	-1.9661288e-14
126	0x3aefddea	0.0018300388
127	0x80039fb9	-3.32804e-40
128	0x3c22eab8	0.009943657
129	0x848e89d8	-3.351063e-36
130	0xa5805428	-2.2261487e-16
131	0x0003bfbb	3.44286e-40
132	0x3bcc45cb	0.006233906
133	0x38913356	6.923701e-05
134	0x3404f563	1.2382729e-07
135	0x100af593	2.7404885e-29
136	0x3b36a27d	0.0027867847
137	0x3ac5bad5	0.0015085588
138	0x29ecc968	1.0515444e-13
139	0x3b94285d	0.0045214132
140	0x8003a483	-3.34522e-40
141	0x2d44f1b7	1.1194982e-11
142	0x3abdfb27	0.0014494405
143	0x343cf265	1.7597047e-07
144	0x390faa43	0.0001370097
145	0x2b5a3319	7.752007e-13
146	0x9817a587	-1.9599863e-24
147	0x3b37a01a	0.0028019012
148	0x0011f647	1.649551e-39
149	0x36d30660	6.289032e-06
150	0xbaa07501	-0.0012241901
151	0x0683badb	4.955128e-35
152	0xba61fc38	-0.00086206524
153	0x3c063b01	0.008192779
154	0x24ced76b	8.970319e-17
155	0x158c7f39	5.674627e-26
156	0xba0f0c10	-0.00054568145
157	0x36b72d97	5.4591324e-06
158	0x3a84eb8a	0.0010140997
159	0x80044525	-3.92146e-40
160	0xbc7d9c41	-0.015479148
161	0x84a73c53	-3.931691e-36
162	0x26148cd5	5.153868e-16
163	0x0f4bd744	1.00501314e-29
164	0xbc1e1269	-0.009647944
165	0xbaba1c9d	-0.0014199201
166	0x3a0208cb	0.00049604167
167	0xa5b1a354	-3.081528e-16
168	0x3b5aee3a	0.0033406154
169	0x3b1cbbc6	0.0023915633
170	0x2af3d1a5	4.331094e-13
171	0xb9c6e4cf	-0.0003793598
172	0x21179f1f	5.1371385e-19
173	0xba93a5af	-0.0011264588
174	0x3b161117	0.002289837
175	0xb5d6caad	-1.6003229e-06
176	0xb9872125	-0.000257739
177	0xb66fe208	-3.5745343e-06
178	0x18741e51	3.1551567e-24
179	0x3b574521	0.00328476
180	0x0011eb0f	1.645527e-39
181	0x36235a05	2.434129e-06
182	0xba9bf168	-0.0011897506
183	0xa705409b	-1.849248e-15
184	0xbc1969d4	-0.00936361
185	0xbc313e48	-0.010818072
186	0xa6d0ecf9	-1.4497131e-15
187	0xb24be07c	-1.1867197e-08
188	0xbb365b93	-0.0027825579
189	0x2e1cc353	3.5643776e-11
190	0x3a29cbc2	0.00064772007
191	0x12874384	8.536342e-28

fc_loc.2.bias f4 [6]
0	0x3f85b925	1.0447127
1	0xbb306824	-0.0026917541
2	0x3c427800	0.011869431
3	0x3b8d6420	0.0043149143
4	0x3f8379c8	1.027154
5	0xbac0e2a0	-0.0014715977
